checkpoints/model_GAE_IDS2018.pt (torch, 14546 bytes, 12 tensors)

encoder.convs.0.lin_l.weight f4 [16, 32]
00000000: 439b 18be 0940 1c3e b4cd bf3d d22c 1b3e
00000010: 490b babd abea 9ebd 2774 89bd 77b8 d6ba
00000020: 6424 07be 6499 aa3c c474 f2bd 6922 bb3c
00000030: bb99 203e 85e3 ca3c 33a9 fd3d e722 06be
00000040: 7c12 f6bc 21fa e9bd 0f5f cabc 9f71 9abd
00000050: c1fc d7bd 1211 34be d7aa 90bd 383b 983c
00000060: 4c3b 14bd e2cd 2dbe d4c3 023e b002 013e
00000070: 15b3 e4bd c404 533c 90f8 e53d 111e 31be
00000080: 99eb 06be 81f0 fa3d 608b ab3c f257 a53d
00000090: 6fff 48bd 7065 673d 7816 113e 910f 9abc
000000a0: 87c4 05bd 1756 13be 88e2 39bb efbb 0b3e
000000b0: 210c 12be 16b9 303c c9fa 1c3e 1b19 d5bc
000000c0: 0f69 27bd 3395 ecbc 7340 41bd 82c6 3a3d
000000d0: fe41 15be b667 bc3d 6c83 a5bc d598 fd3a
000000e0: b40a 4d3c d64d fc3d 33d4 aebd 44b2 0bbe
000000f0: ded2 d3bd 0f88 d7bd cb6a 7cbd 0f00 283e
00000100: b5f7 18be 3dac eebd f77e 20be 2fbb cfbd
00000110: 8e14 90bc 789d f6bd df3c 30bc 23fb 403d
00000120: 02e8 2ebd 4b59 823d fde0 e43c 11f0 213e
00000130: 165c b1bc ccf8 0f3e 6e20 f53d 3837 933d
00000140: 9308 b33d 4228 06be 492a 06be f5bf 803d
00000150: 5933 533d 136e 163e 0bfd 11bd b8d1 38bd
00000160: a555 de3d e6a0 e2bb 4504 1d3e cb85 d2bd
00000170: 5aa4 90bd 976a a3bb 243c a73d 449f 2bbe
00000180: eecd 93bd 7376 d83d 955c 673c 597d d13d
00000190: 6019 a9bd e757 09be bed0 12be 6703 fabd
000001a0: f944 1fbe 7af3 843d 1563 cb3c 790d 0bbe
000001b0: 93b0 0e3e b46e e23c e38a 303d 9a02 c7bd
000001c0: 6730 cc3d caeb 16be 8f6f d93d 7233 f3bd
000001d0: 0b9d 563d bf6f b1bd c6bd bc3d 370c 2fbe
000001e0: 911b 6abd 212f 90bd 007a 03be a44b e0bd
000001f0: ca0d 94bd f7ca 8ebb 6383 d23d ece9 53bd
00000200: db71 183e ab43 debd 245d ecbd 5dbb 09bd
00000210: 5c0b 67bd 4b07 023d d144 0e3e 6bf4 133d
00000220: 4476 30be b3ac adbd 7fcf 73bd 7bd3 3dbe
00000230: e3d3 f73c b505 053e afd3 813d a299 e4bc
00000240: 4c16 1bbd 7885 dbbd 0467 34bd 26c5 053e
00000250: f51c ecbd 5813 7e3b edce 1dbe 15fc 94bd
00000260: 1d22 68bc 98ad 21be 9389 c13c a66f 34be
00000270: 0ce0 c5bd 08f6 c93d bed0 103e ce92 1cbd
00000280: 3653 4bbe b392 5ebe 9ddb ecbd 9151 26be
00000290: 09e7 8b3d 6bfc 4abe fe12 0c3d 9d1a 1ebd
000002a0: 2000 01be 913a 933d 8b56 d63c 6e8c a0bd
000002b0: 45a2 44be 8671 febd 423d 79bc 44cf a53d
000002c0: 9007 07be f02b 15be dbce 7abe 0f47 153d
000002d0: 1d79 cd3d 55bd 4a3d 1fcf 2ebe d5f0 5e3d
000002e0: 8dd2 00be 0f94 a53c c236 ff3c ed86 5dbe
000002f0: f82b e9bc d086 d6ba 18c4 36be 26d6 ba3d
00000300: c11d 673e a916 713e db54 b03d 8db6 e1bb
00000310: ecfd 11bc 9ac7 193e f757 573d 22ad 693e
00000320: 4667 713e 1d89 cf3d 9b98 69bd a3a6 213e
00000330: cdca 7b3e 3954 313d f502 9ebb 65d0 3d3d
00000340: 7a77 e73d 560b 32bd 4878 3a3e ca2c 273e
00000350: 03b7 a43c c6ed b53c 9406 7a3b 114d 673e
00000360: 0829 453e f93f 0d3e 0c5c a33d 1705 073e
00000370: 1e39 843e de1c 133e fe49 f6b9 97d2 1f3e
00000380: 98c2 1fbc 22b1 5d3d 59f5 5abd f837 623d
00000390: bd96 8e3d b9bb 3fbd 663a 323e c609 653e
000003a0: e71e b3bd 8d9b e43d bbca 7cbd 8ff9 ce3c
000003b0: dc8f 143e 53b1 6a3d 3669 e93d acd8 4c3b
000003c0: 139a 6a3e e015 b9bc 7976 bf3d 2edd a03d
000003d0: 3228 393e 18ac a03d a4fd 2a3e 6bfb d83d
000003e0: 9e45 313e ff46 803d fd81 f43d 6e69 703e
000003f0: 3a08 383b 2cfa 3cbc 2041 413e 8a12 033e
-0.14902978 0.15258802 0.09365407 0.15153816 -0.09084184 -0.07759603 -0.067116074 -0.0016381879
-0.13197476 0.020825095 -0.118386775 0.022843556 0.15683644 0.024766693 0.12385788 -0.13099252
-0.03003811 -0.114246614 -0.02470353 -0.07541203 -0.10546256 -0.17584637 -0.07063835 0.018582925
-0.036189362 -0.1697307 0.12770015 0.12598681 -0.1116697 0.012879554 0.1122905 -0.17296626
-0.13175811 0.12252904 0.020940483 0.08073415 -0.049071725 0.056493223 0.14168727 -0.01880625
-0.032658126 -0.1438831 -0.0028363783 0.1364591 -0.1426244 0.010786315 0.15330042 -0.026012948
-0.040871676 -0.028879737 -0.047180604 0.045599468 -0.14575955 0.09199469 -0.020204268 0.0019347916
0.012514759 0.123195335 -0.085365675 -0.13642222 -0.10342954 -0.10523998 -0.061625283 0.16406272
-0.14938243 -0.116539456 -0.15673433 -0.10143124 -0.017587926 -0.120417535 -0.0107567 0.047114503
-0.04270173 0.063646875 0.027939314 0.15814234 -0.021650355 0.14059752 0.11969076 0.071882665
0.0874187 -0.13101295 -0.13102068 0.06286613 0.05156264 0.14690427 -0.03564171 -0.04512188
0.10856179 -0.0069161532 0.1533366 -0.10279425 -0.070625976 -0.0049870717 0.08165768 -0.16759974
-0.07217012 0.105694674 0.014121194 0.10228986 -0.08256793 -0.13412438 -0.14337441 -0.1220768
-0.15553655 0.06491752 0.02482752 -0.13579358 0.13934545 0.027640678 0.043101203 -0.09717293
0.099701695 -0.14738384 0.10616981 -0.11875047 0.05239586 -0.08663892 0.09215884 -0.17094503
-0.057155196 -0.07040239 -0.12839508 -0.10951927 -0.072291926 -0.0043576914 0.10278966 -0.051736757
0.14887182 -0.108527504 -0.11541203 -0.03362595 -0.056407318 0.031745236 0.13893439 0.036121767
-0.17232615 -0.084802054 -0.059524056 -0.18537705 0.030252403 0.12990458 0.063392036 -0.02790529
-0.03786306 -0.107188165 -0.044043556 0.13063487 -0.115289606 0.0038768854 -0.15410967 -0.07274643
-0.0141682895 -0.15788877 0.02362517 -0.17620715 -0.09661874 0.0986138 0.14142129 -0.03822594
-0.19855961 -0.21735649 -0.115653254 -0.16242053 0.06831176 -0.19822852 0.0341978 -0.0385996
-0.12597704 0.07188905 0.026164314 -0.07839285 -0.19202526 -0.124239966 -0.015212359 0.080961734
-0.13186479 -0.14567542 -0.24492972 0.03644472 0.10032866 0.049496967 -0.17071198 0.054428894
-0.12580319 0.020212201 0.03115404 -0.21633501 -0.028463349 -0.0016367082 -0.17848241 0.09122877
0.22569944 0.235438 0.08609935 -0.006888217 -0.008910637 0.15017548 0.052574124 0.22819951
0.23574552 0.10133574 -0.0570303 0.15786223 0.24589081 0.04329321 -0.00482213 0.04634132
0.11302085 -0.043467842 0.18209946 0.1632568 0.020106798 0.022208106 0.0038150894 0.22587992
0.19253933 0.13793935 0.07976541 0.13185535 0.25824827 0.1436648 -0.00046975905 0.15607677
-0.009750985 0.054124005 -0.053456638 0.055229157 0.06962345 -0.046809886 0.1740509 0.2236701
-0.087461285 0.111624815 -0.061716776 0.025265483 0.14508003 0.057298016 0.113970205 0.0031257076
0.22910337 -0.022593439 0.09348769 0.07854687 0.1808174 0.07845324 0.16698319 0.10594829
0.17311713 0.062635414 0.11938856 0.23477718 0.0028081075 -0.011534255 0.188725 0.12800041

encoder.convs.0.lin_l.bias f4 [16]
00000000: e896 b6bd c002 753c 6fcd 03be 3265 353e
00000010: d1a1 653c 212e 9dbd 2f39 a0bd 5b15 933e
00000020: 1392 e93d 537d 12bd 3ed7 20be cf75 c83d
00000030: 3a47 dbbd 5597 703e afed 2bbe 9a3e b7bd
-0.08915502 0.014954269 -0.12871335 0.17714384 0.014015631 -0.07674814 -0.07823407 0.2872723
0.114048146 -0.03576405 -0.15707108 0.09788095 -0.10706945 0.23495229 -0.16789888 -0.08947487

encoder.convs.0.lin_r.weight f4 [16, 32]
00000000: f9e1 e4bd 1e51 5f3e e5b6 5f3e d87d bebd
00000010: 3726 473e e040 4bbd 1b08 dabd 2455 123e
00000020: fed3 213e 65d2 213e 7df7 b53d d7f0 683e
00000030: 4b73 c1bd 5bbc 0e3e f823 ed3a 774f 883d
00000040: de0f 383e dfd3 8cbd 2b8b 0a3e 3e77 b83c
00000050: 574d 303e 8cd8 593d 8906 153e d8e6 683e
00000060: 4060 adbb ea31 eebd 66f7 653e 91c9 21bd
00000070: 9a2a c93d 46cc 2b3e 56d4 f83c 1cb0 483e
00000080: b21f 4a3e e679 413d 4f46 043e 3a10 c53d
00000090: 7ef3 823e 7123 523e 2a03 0fbd 8782 cc3d
000000a0: af72 363e 1634 5f3e 8b9e 123e 4fbb 213e
000000b0: 7c90 4d3d b67a b13d 3ee2 21bd 04d6 693e
000000c0: ed5a 633e 95d3 6dbc 9a54 8cbd 59f8 613e
000000d0: 9040 97bd b7e7 483e 6a03 b7bd 6e77 f7bb
000000e0: 67bb 023c a7ef 7e3e 86ba 583d 57f5 703e
000000f0: 4868 093e 3c17 823e 12b6 4c3e 2b21 5a3e
00000100: cddf 643e ca8f 8c3c d641 aa3c ed60 013e
00000110: 2e85 663e 0af4 8d3b f8ad 8ebd 851a 8dbd
00000120: ee40 49bc cfdf c73d 6e6b 483d 313a b63c
00000130: 502d 59bc df45 ec3d a91c 9cbd cf24 793e
00000140: d512 2c3d 54a8 d13d 3daf 023e a69c 1e3a
00000150: 65e9 553e 116c 8b3d 13ce ab3d 908a cabd
00000160: 19eb ba3d 442a 053e ff8d c03d 8e73 543d
00000170: 3abd 4f3e d82a 563e 75ad 433e c889 1e3d
00000180: ef39 b13d 9a18 8abd f259 9cbd c6a4 cd3c
00000190: 2327 9b3d cf5e 40bd 5d81 bbbd 16b1 0b3e
000001a0: 420d f73d 3c07 79bd c0cc 313e aaec 9bbd
000001b0: d946 423e 1f82 193e 977a 75bb 04af 653e
000001c0: d32d 31bd c6c2 cabc 5b9f 493e 5029 2b3c
000001d0: 7b4c 7cbc 8bb4 aa3d 760a d63c 2a62 2b3e
000001e0: db21 4d3e 10dd 093e c5fb c03d e3a2 cd3d
000001f0: 4839 783d e833 9d3d 261f 733d 6bc7 343e
00000200: 3ee4 8f3d 64ef 3dbd ef4b 1c3d 512d 9abc
00000210: 1cbe 0a3d c3aa ee3d d071 18be 0bc7 63bb
00000220: d4e2 85bd 3940 4ebe 2b2f 4dbe a0f1 53bd
00000230: 228d c83d 21a5 14be 1573 ed3c 0a18 963d
00000240: 9539 21be fdd4 413d d930 9c3b ee15 42be
00000250: 3d0e 03bd d739 47be 71fb 003e 473a 5e3d
00000260: 7c4e 203d 1561 db3d a14e da3d 746c 163e
00000270: 779b 353d bcf9 1fbe 94da 0a3e eb01 a83c
00000280: ea6c 523c 5f1f 893c 54e5 7d3e 5471 f93d
00000290: 1815 583e 0341 c53d 1cb9 7b3e 03cb 3fbd
000002a0: f44d ff3d 6068 ff3d ded7 a43d 228a 753e
000002b0: 6ab8 f13d 72a1 bc3d 9e0f 503e ea6f 8c3d
000002c0: 8aa0 913d b177 81bd 90a5 a63d 526a 6637
000002d0: 0151 3d3e 28fc 713e fdbc a8bd c4b7 a2bc
000002e0: 0365 813e 9ee1 e73b 1c7f 753e fc5d 833e
000002f0: b472 1c3d f418 78bd c705 2f3e c1cb 263e
00000300: 1477 5f3e cb99 b83d c495 243e 651d b2bd
00000310: c134 b63d 1d85 d93d 679c 333e 70f3 f5bc
00000320: b517 323d 8df9 26bd 9bb0 5ebd 2983 0d3e
00000330: cd84 bb3d 3c15 0a3e 9022 783d e0d5 763d
00000340: 21d2 6c3d 82ef 233e 7665 6cbd a45a d23d
00000350: 2c6a 253e 2d25 2b3e 87b1 a5bc 7b55 4e3e
00000360: 6df2 59bd d08b 203e da3a 563e 8eed 8f3d
00000370: b039 f33d c9a7 d2bd b257 aebb c3e3 9ebb
00000380: 4c91 15be d5ec 9abc 4357 113e 0f91 d73a
00000390: d5d8 453e 3dfb 0fbe 6352 b63d 427f 2f3e
000003a0: 3fe9 423e 8202 4dbd 237a 10be 6842 3ebd
000003b0: b028 193e da4f 0b3d 70fc 3f3e e06a e2bd
000003c0: 5ac4 bcbd 4971 de3d 2a12 a23d 4f46 c5bd
000003d0: 805f 3b3e 1261 4bbd 367a 03be 668c 8a3d
000003e0: 29e4 a4bd e359 86bd 2d50 a4bd dc67 883d
000003f0: 618c cf3d 13b7 0c3e 3cee a6bd 66b5 babc
-0.11175913 0.21808288 0.21847112 -0.093013465 0.19448172 -0.049622416 -0.10646077 0.14290291
0.15803525 0.15802915 0.08885095 0.22748123 -0.094458185 0.1393904 0.0018092385 0.06655782
0.17974803 -0.06876349 0.13529651 0.022517797 0.17217003 0.05318503 0.14553274 0.2274431
-0.005291015 -0.11630614 0.22457656 -0.03949887 0.09822579 0.16777143 0.030374687 0.1959843
0.19738653 0.047235392 0.12917446 0.096222356 0.25576395 0.20521332 -0.034915127 0.099858336
0.17817186 0.21797213 0.14318292 0.15794109 0.05018662 0.086659834 -0.039522402 0.22835547
0.22202654 -0.014515777 -0.06852074 0.22067393 -0.07385361 0.19619642 -0.08936198 -0.007552079
0.0079792505 0.24896108 0.052912258 0.2353109 0.13418686 0.2540835 0.1999133 0.21301715
0.22350998 0.017158408 0.020783346 0.1263463 0.22511742 0.0043320702 -0.06966776 -0.06889824
-0.012283547 0.09759485 0.048930578 0.022244545 -0.013255432 0.11536764 -0.07622654 0.24330448
0.042010147 0.10237184 0.1276216 0.0006050564 0.20889814 0.068077214 0.08388915 -0.0988971
0.091268726 0.13004404 0.094020836 0.051868014 0.20287028 0.20914781 0.19109137 0.038705617
0.08653628 -0.067429736 -0.07634343 0.025102984 0.07575824 -0.046965417 -0.091555335 0.13641772
0.120630756 -0.060797915 0.17363262 -0.076134995 0.18972339 0.14991044 -0.0037457102 0.22430044
-0.043256592 -0.024751078 0.19689696 0.010446861 -0.015399094 0.08335217 0.026128035 0.16736665
0.20032446 0.13463235 0.09423021 0.10040834 0.060601503 0.07675916 0.059355877 0.17654197
0.070259556 -0.04637088 0.038158353 -0.018820437 0.03387271 0.11653664 -0.14887166 -0.003475609
-0.06537405 -0.20141686 -0.20037524 -0.051744103 0.09792544 -0.14516117 0.02898554 0.07328804
-0.15744622 0.047322262 0.0047665653 -0.18953678 -0.031996 -0.19455658 0.12595917 0.054254796
0.03913735 0.10711876 0.106595285 0.14689809 0.044337716 -0.1562261 0.13559943 0.020508727
0.01284335 0.016738592 0.24794513 0.12179819 0.21101797 0.096315406 0.24582332 -0.046824466
0.1246604 0.1247108 0.08048986 0.23978475 0.11802752 0.09210481 0.20318457 0.068572834
0.071106985 -0.063216574 0.08137047 1.3733823e-05 0.18487932 0.23631346 -0.08239172 -0.019863017
0.25272378 0.007076456 0.2397427 0.25657642 0.038195327 -0.060570672 0.17092048 0.16288663
0.21822768 0.09013709 0.16072756 -0.08697013 0.08896781 0.106210925 0.17540132 -0.030023307
0.04347964 -0.040765334 -0.054367643 0.13819565 0.09156189 0.13484663 0.060579836 0.06026256
0.057817582 0.16009334 -0.05771395 0.102711946 0.16153783 0.167134 -0.020226253 0.20149796
-0.05320971 0.15678334 0.20920888 0.07027732 0.118762374 -0.10285909 -0.0053205127 -0.0048489287
-0.14606208 -0.018911758 0.14193444 0.0016446429 0.19320996 -0.14060684 0.08902433 0.17138389
0.19034289 -0.05005122 -0.14109091 -0.04645005 0.14956927 0.0340117 0.18748641 -0.11055541
-0.092171386 0.10861451 0.07913621 -0.09632551 0.18298149 -0.04965312 -0.12839589 0.0676506
-0.080513306 -0.06560113 -0.08023105 0.066604346 0.10134197 0.13741712 -0.08150908 -0.022791576

encoder.convs.1.lin_l.weight f4 [16, 16]
00000000: 3f34 273e 2509 a43e e467 513e fdbb 1abe
00000010: ff59 1dbd 23ab 9e3e e784 8e3d 5fac 283d
00000020: 5fb6 ac3d 54d9 b2bd d3fb 96bd 4a4e 3bbc
00000030: 5d53 7a3e fbbf 44bd a4fc 85bd 718d aebd
00000040: 8d20 223d e4fc a63e e1c1 973e ff78 df3d
00000050: f1a8 09be ba98 373e 586c 8e3e 1ce7 013e
00000060: acf5 653e 87d5 01be 7ebf 83be 1fee ddbd
00000070: 17f7 ed3d 1b3b ab3e 50ce 553d a6d3 82be
00000080: 0b44 4dbd a7b4 cbbc 3b82 dabd 510d 97bd
00000090: 4c01 7b3d 187c 4f3e 1ae0 643e 24ff e73d
000000a0: 90be 12be 5bda 613e d1cd 713e 3d8b 57bd
000000b0: e7b9 ac3c d35f a13e 6c0b b4bd df41 223e
000000c0: 1cd6 15be cc38 d63c 91a9 883d 3c7e 1a3e
000000d0: d454 563e 8122 a7be 5499 523e 306b 9b3c
000000e0: b7ec 80be 48e0 593d 5c72 cbbc 94a4 b0bd
000000f0: b5a1 82be f1bf 7cbe b0da d23c fa35 8e3e
00000100: 3efc 653e b115 d93d 7c97 853e 0ebd 29be
00000110: b5d5 2abe 25f2 233e 6e87 7fbe ec6a 483e
00000120: e6c3 ad3d 5dc4 a6bd ac42 6d3e 0932 3c3d
00000130: ee1d 7a3e 1591 273e 8837 32bd 1911 253d
00000140: 84db 153e 8b4b ca3d 818d 183e b71b f5bd
00000150: 7958 20be 45e2 a63e a25a 09be 8767 203e
00000160: 364c 733e 0536 50be 6108 1dbd 003e 41bc
00000170: 5410 803e 3e02 2c3d 2438 673e ceaa ffbe
00000180: 17f5 113e 5af1 383e 6cb0 26bc 23c5 cebc
00000190: d884 0dbe 08ed 063e 6f89 373e 3261 513c
000001a0: d8c5 893e 7f2f b7bc bb6c f4bc 0f38 9f3e
000001b0: e1ea df3d d2d6 613e d4e4 163e 5252 b0ba
000001c0: a950 8cbd 0ee4 5b3e 3b58 27be c8b9 9f3c
000001d0: 509d 2d3e be5b 3ebc 5ee0 3fbd d4f2 e63d
000001e0: 63d3 66be 2c58 4a3e e65d 403e eaad 28bd
000001f0: 20d4 dabd 6756 4abd 80b6 7e3e 56d9 f0bd
00000200: b739 483d 2b20 7bbe 2035 b93d 38e5 183e
00000210: 3b64 6b3d 156f 87bc a5cc 1c3d 5d0a 7b3e
00000220: 8b54 d33d 66e5 3ebd f3a5 47be 11d9 6b3e
00000230: 2b82 c9bd d748 7b3e e0cc 4dbd 1686 673d
00000240: ac1f 68be a3d7 15be 3d57 413d b979 8cbe
00000250: 6cbc 80bd d6fc ee3d 212b 6c3e b898 6d3e
00000260: b1d2 edbd 74e7 ef3b 1a1a 55be 6b89 313e
00000270: c797 ad3c 97a3 893e 304d 1fbd c62b c23e
00000280: 9932 1c3e c04f 873e d6c0 da3c fb4c 16be
00000290: 84b5 2cbe dd7a 44be bfa4 ee3d 2d97 c7bd
000002a0: b2d4 3fbd d618 063e eaf5 5f3e 1454 7c3c
000002b0: 12cb 5a3e b1b4 b8bc 30eb 4cbd 0d62 a2bd
000002c0: 828a fabd 2104 533d fdb0 82bc bdac 0dbe
000002d0: 13ad 1a3e d070 00be bdd1 3ebe 04de 8e3d
000002e0: 335d 02bd daec 0cbe 18fb 50be c641 bcbd
000002f0: 1f57 52be 0e64 f43d 0019 ffbc 63d4 e43d
00000300: 6779 423e 8b95 6cbc 8612 97bd 8e79 d13b
00000310: 541b e73e 7f7b f4bd 981a 05be 6db0 563e
00000320: 06bc 493d 6885 4e3e b498 173e 8139 33bd
00000330: 8198 80be e3b3 783e 1087 ac3c eab8 793e
00000340: c088 97be e9e8 f03c 193c 3dbe e7d5 3bbd
00000350: d34a 4dbe 0443 93be 63b8 c43d fc4e b23e
00000360: 977f 1cbd dae3 4fbc d5c3 653e b165 083e
00000370: 56f1 1fbe 180f 663e 20ab 363e 49f8 a73e
00000380: 2dd1 423e ae55 483e 82cd efbd b8bb 1e3c
00000390: 3b7e bbbd 588c 24bd f4fe 203e 33fb 72be
000003a0: 6bf0 e13d 92e9 13be 00b2 b33a 6861 8fbd
000003b0: 3a3d 0fbe 3d1a 12bc cead 01be d4fb 3d3e
000003c0: 8488 c7bd c956 1b3e 0101 8fbd ec9c 53be
000003d0: 69e8 3d3e 019f 9fbd 2bad e8bd 68dd 113c
000003e0: ae05 4fbc 06e3 803d 22f5 8cbd 4577 a7bd
000003f0: 5c34 023e 8262 d63d d246 623e d134 8e3c
0.16328524 0.32038227 0.20449787 -0.15110774 -0.038415905 0.30989942 0.06958943 0.04118001
0.08433222 -0.08732858 -0.073722504 -0.01143224 0.24445863 -0.04803465 -0.06542328 -0.085230716
0.039581824 0.32614815 0.29640105 0.1091175 -0.13443352 0.17929354 0.27817035 0.12685817
0.22456998 -0.1267911 -0.25732034 -0.108364336 0.11619394 0.3344353 0.052198708 -0.255521
-0.05011372 -0.024866415 -0.10669371 -0.07375587 0.061280534 0.20262182 0.22351113 0.11327961
-0.14330506 0.22055952 0.23613669 -0.052623022 0.021084739 0.3151842 -0.08791241 0.1584544
-0.14632457 0.02615013 0.06672967 0.15087217 0.20930797 -0.32643512 0.20566303 0.01897201
-0.251806 0.053192407 -0.024834804 -0.08625141 -0.25513998 -0.24682595 0.025739044 0.27775556
0.22459504 0.105998404 0.26092136 -0.16576025 -0.16683085 0.1601034 -0.24954006 0.19572037
0.0848463 -0.08142922 0.23169965 0.045946155 0.2442548 0.16363938 -0.04350999 0.04029951
0.1463452 0.0987769 0.1489773 -0.11968177 -0.1565875 0.32594505 -0.1341348 0.15664493
0.23759541 -0.20333107 -0.03833807 -0.011794567 0.25012457 0.041994326 0.2258001 -0.49935
0.1425365 0.18060818 -0.010173898 -0.025240486 -0.13820207 0.13176358 0.1792352 0.012779521
0.26908755 -0.022361515 -0.029837003 0.31097457 0.109334715 0.22054604 0.14735729 -0.0013452268
-0.06851322 0.21473715 -0.16342251 0.019497767 0.16954541 -0.011618553 -0.046844833 0.112767845
-0.22541575 0.19760197 0.1878582 -0.041181482 -0.10684991 -0.049398806 0.24874306 -0.117602035
0.048883166 -0.2452399 0.09043336 0.1493119 0.057468634 -0.01653246 0.0382811 0.24515672
0.1031886 -0.04660549 -0.19496898 0.23032023 -0.09839281 0.24539505 -0.050244212 0.05652436
-0.22668332 -0.1463304 0.047202338 -0.27436617 -0.062859386 0.116693184 0.23063327 0.23202789
-0.11612452 0.0073212925 -0.20810738 0.17337577 0.021190537 0.26882622 -0.03889197 0.3792402
0.15253676 0.26428032 0.02670328 -0.14677803 -0.16866118 -0.19187494 0.116525166 -0.09745631
-0.0468337 0.13095412 0.21871153 0.015400905 0.21366528 -0.022547098 -0.05002898 -0.07928858
-0.122334495 0.05151761 -0.015953535 -0.13835426 0.15105085 -0.12543035 -0.18634696 0.0697594
-0.031827163 -0.13762227 -0.20408285 -0.09192233 -0.20541047 0.119331464 -0.03113985 0.11173322
0.18991624 -0.014439951 -0.0737658 0.0063926643 0.45138037 -0.119376175 -0.12998426 0.20965739
0.04925158 0.20168078 0.14804345 -0.043756012 -0.2511635 0.24287371 0.021060497 0.24386945
-0.2959652 0.029407935 -0.18479957 -0.04585829 -0.20048074 -0.28762066 0.096054815 0.34825885
-0.038207617 -0.012688601 0.22437985 0.13320042 -0.15619406 0.22466695 0.17838717 0.32806614
0.19025107 0.19563934 -0.117091194 0.00968831 -0.09154936 -0.040172905 0.15722257 -0.23728637
0.11032184 -0.14444569 0.0013709664 -0.07001001 -0.139882 -0.0089173885 -0.12663957 0.18553096
-0.09742835 0.15169825 -0.06982613 -0.2066533 0.18545689 -0.077939995 -0.11361154 0.008902885
-0.0126356315 0.06293301 -0.06882693 -0.08177046 0.12715286 0.104680076 0.22097328 0.01735917

encoder.convs.1.lin_l.bias f4 [16]
00000000: 93df b7bc 9721 5f3a 57e0 72bd 07b5 83bd
00000010: 54ab d8bd 37b0 2fbd 1386 ec3d 5744 ac3d
00000020: 4c15 163e 4712 a1be 6925 6d3e de02 8abd
00000030: dc31 1fbe 2bb8 403e 46d8 38be 4028 f8bd
-0.022445476 0.000851178 -0.05929598 -0.064310126 -0.10579553 -0.04289266 0.1154901 0.08411472
0.14656562 -0.31459257 0.23158802 -0.06738828 -0.15546364 0.18820255 -0.18051252 -0.12117052

encoder.convs.1.lin_r.weight f4 [16, 16]
00000000: 6de1 a0bd 450d 9dbd 789c 8e3d 05bb 91be
00000010: 179f f43d c96d 47bc db69 2c3e 7dac 2abd
00000020: 9471 c1bd 702d 873d c1f2 793e edbb afbd
00000030: 7851 abbe fa2b c0be 089f 073d a994 9dbd
00000040: 80e3 86be f50b 76be 3615 d7bc 755f 8abe
00000050: 8de5 003e b281 ccbe 62a4 b8bd 9c68 043e
00000060: 8be1 bcbe a065 7c3d e682 abbd ea44 dabc
00000070: 6198 c93d 38e5 8bbe 2012 723d 73cf 853d
00000080: 6974 cf3d 5cd4 6d3e bd16 813e d575 16be
00000090: 4caf 89be 3261 2ebe fde3 b33d 6edf f13d
000000a0: 29e6 0c3e 1455 de3d c80a 793e a18b 28be
000000b0: d944 41be 2870 aabd 0cb3 463e 68d9 9fbe
000000c0: df0d 923e f4ce d93d 44d0 433e 2229 9d3e
000000d0: 10b2 8a3e 78e7 a03e d1ba 68bd f98c ebbd
000000e0: d317 363e f216 4c3e c0f6 cb3b 8988 c2bd
000000f0: 71e3 c73b aca1 3bbd f8d7 f53d c621 c2be
00000100: 6c49 483e ae5e 16bd 64a2 25be 0980 f3bd
00000110: 0369 0dbe 7791 76be 1015 f93c 5f47 6dbd
00000120: c5d3 0fbe 795e 14bd a21e 19bd f5bb db3d
00000130: b50e 63be 7f4f a5bd 8099 5fbb 23b4 0bbe
00000140: 9ed0 053e 98e9 4bbe 15dd 1b3e fe63 d53d
00000150: 3ccf 8dbb d07d c63d 598b 27be a1a3 713c
00000160: cdff 99be b6c1 22be b287 b03d ea48 793e
00000170: 57f8 58be a13f 6dbe 208a 0fbe 0d7b cd3d
00000180: 448a 19be f28e 0cbe d8ac 4fbb 99c8 903e
00000190: ad16 8f3d 9734 77bd aac7 683e 13c5 803e
000001a0: f4a3 5f3e 8d47 3abc b030 99bc e5ba 673e
000001b0: 2111 413e e69f 193e 1260 383e 9ab1 f5bb
000001c0: 1721 853e dc73 c43d 0029 8a3e 3bb8 8a3e
000001d0: 6b75 3f3e 1801 503e d09b 563e 490d f4bd
000001e0: 76fe a4bd 6149 2ebd f6f0 0bbe f39b 133e
000001f0: 7799 303d e15f 14be a064 e5bd 8e58 adbe
00000200: d510 863d 7a0f 883e d252 433e a961 553e
00000210: 0940 083e b470 073e d19e 253c 16c9 39be
00000220: a669 483e 109b 27be 82dd 13be 087b d03d
00000230: ef98 1e3e 72fd 27be 2c03 223e 9c7f b5be
00000240: 6c41 023e 4f1a 373e d2c6 5d3d 1bbe d3bd
00000250: b753 33be 5476 833e 0208 133d 3c6a 0bbe
00000260: 4eb6 9a3e fcc9 25bd bebd 0dbd e758 433d
00000270: 3f79 6a3e 435e 4cbd 0033 a53a 6db7 56be
00000280: a145 fabd 4f5a ef3b 609d 7f3d 43f8 2f3e
00000290: 9aa4 37be 2486 4d3e 3f66 843e bb1b d23c
000002a0: 97eb 553c d74f 9e3d 3678 64be ed56 5e3e
000002b0: edbe 7e3c b87e a73c 38bc f23d 4986 323e
000002c0: 84e7 ecbd d634 4dbe 02f7 76be 3a1f 67be
000002d0: 7843 57bd 20bd 46be 71a6 2bbd 37a6 18be
000002e0: 857a ff3d 441b 2f3e ce93 583e 6b36 39be
000002f0: 8ea9 34be aedd 8e3d 98d7 69bd 9379 313e
00000300: 850c 93be 8225 403e 8dae 6abe bec5 68be
00000310: bef4 2a3f 9dad 17be 7948 4ebe b49f 033e
00000320: 59f8 213e c087 0e3e 00fb f93c c218 52bd
00000330: 6654 41be 7ae6 5a3e 806e 0bbe 35f0 dabb
00000340: 41e2 583e be93 2b3c 92da 4b3e acc0 41bd
00000350: 4543 4c3e cbaf 16be 685c 383e 1ebe 4a3e
00000360: c3e1 f63c d178 383e 6059 113c e1cd 8dbe
00000370: c778 143e a035 85be 20b9 003c e6bc e8be
00000380: b4c5 f3bd 9df5 d8bd f4f8 c6bd 70d8 90be
00000390: a84d febd fe33 6dbe a154 6cbe e87e 93be
000003a0: 260e 38be 4076 65bd c89f 663e 3991 59be
000003b0: f4ab 42be 98fa 76be 6e7f 6f3e 1115 2fbd
000003c0: 31d4 98bd 2ab9 043e 00ce 1fbe 1bc0 97bd
000003d0: 2316 623e df6f ff3d 6585 4fbe 1f93 9ebd
000003e0: 6682 863c 0ff8 cc3d 148e ebbd 0a55 2a3e
000003f0: 79ca 95bb ea57 5dbe f431 893d a4a6 7ebe
-0.078554966 -0.076685466 0.06963438 -0.28462997 0.119444065 -0.012172171 0.16837256 -0.041668404
-0.094454914 0.066004634 0.2440901 -0.08580766 -0.33460593 -0.3753355 0.03311065 -0.0769437
-0.26345444 -0.24027999 -0.026255231 -0.27025953 0.12587567 -0.399427 -0.090157285 0.1293053
-0.36890826 0.061620355 -0.08374576 -0.026644189 0.09843517 -0.27323318 0.059099317 0.065337084
0.10129625 0.2322554 0.2521266 -0.14693387 -0.26891553 -0.17029265 0.0878372 0.11810194
0.13759674 0.10856071 0.24320519 -0.16459514 -0.1887392 -0.08322173 0.19404238 -0.31220555
0.28526208 0.10635176 0.19122416 0.30695444 0.27088976 0.31426597 -0.056818787 -0.11501498
0.17782526 0.19930628 0.0062244833 -0.09498698 0.006100111 -0.04580848 0.120040834 -0.37916392
0.19559258 -0.036711387 -0.16175228 -0.11889655 -0.1380959 -0.24078928 0.030405551 -0.057929393
-0.14045627 -0.03622291 -0.03738273 0.10729209 -0.22173579 -0.08071803 -0.0034118593 -0.13642935
0.13067862 -0.19913328 0.15221055 0.104194626 -0.004327683 0.096919656 -0.1636175 0.014748485
-0.30077973 -0.15894207 0.08619632 0.24344221 -0.21188484 -0.23168804 -0.14017534 0.10033236
-0.1499415 -0.13726404 -0.0031688716 0.28278044 0.06986747 -0.060352888 0.22732416 0.25150356
0.21839887 -0.011369598 -0.018699974 0.22629888 0.1885419 0.15002403 0.18005398 -0.0074979784
0.26001808 0.09592411 0.26984406 0.27093682 0.18697135 0.20312917 0.20957875 -0.119165964
-0.08056347 -0.04255045 -0.13666138 0.14414959 0.043115105 -0.144897 -0.11200833 -0.33856624
0.06546179 0.26574308 0.19074562 0.20838036 0.13305677 0.13226587 0.010108666 -0.18143114
0.19571552 -0.16367745 -0.14439967 0.10179716 0.15488027 -0.16405275 0.15821522 -0.3544892
0.12720269 0.1788113 0.054144688 -0.10338994 -0.17512403 0.25676215 0.03589631 -0.13614744
0.30217212 -0.04047583 -0.03460478 0.047692206 0.22897814 -0.049894582 0.00126037 -0.20968409
-0.12220312 0.007304467 0.062405944 0.17184548 -0.17933884 0.20070702 0.25859258 0.025647989
0.013056657 0.07730072 -0.22311482 0.21712847 0.01554845 0.020446166 0.11852306 0.17434038
-0.115675956 -0.20039687 -0.24117664 -0.22570506 -0.052554578 -0.19408083 -0.041906778 -0.14907156
0.124745406 0.17100245 0.21150133 -0.18087165 -0.17642805 0.06975876 -0.05709037 0.17331533
-0.2872049 0.18764308 -0.22918148 -0.22731683 0.66779697 -0.14812322 -0.20144834 0.1285389
0.15817393 0.13918972 0.030515194 -0.051293142 -0.18879852 0.21376982 -0.13616371 -0.006681467
0.21180059 0.010472236 0.19907597 -0.047302887 0.19947536 -0.14715497 0.18004 0.19799086
0.030136948 0.18014838 0.008871406 -0.27696136 0.14499198 -0.26017475 0.007856637 -0.45456618
-0.11902943 -0.10593722 -0.09715453 -0.2829013 -0.124171555 -0.23164365 -0.23079158 -0.2880776
-0.17974147 -0.056020975 0.22521889 -0.21246804 -0.19010907 -0.24119031 0.23388454 -0.0427447
-0.07462347 0.1296126 -0.15605927 -0.07409688 0.22078757 0.124725096 -0.2026573 -0.07742905
0.0164196 0.10008251 -0.115017086 0.16634002 -0.0045712558 -0.21615568 0.06698981 -0.24868256

encoder.convs.2.lin_l.weight f4 [16, 16]
00000000: 2d60 d63b d017 84be 6fe8 a8bd 5cdb 8dbd
00000010: e0f4 65be ecd1 90bd 3699 35bb a5aa 1bbe
00000020: d42b c73c 7b80 f73d 263d 963c 7847 7bbe
00000030: 0016 4fba d267 03be e8f0 913d c067 4dbe
00000040: d478 7fbe b82c c3bd 4ea9 1c3e 181e d1bd
00000050: 2553 5fbd 337b 2abe 8049 36be 9e10 89bc
00000060: 7b19 82ba 5d55 d63c b90d fb3d 9948 a83d
00000070: dc59 7a3e a7fc 79bd f2d9 d5bd 0c98 503e
00000080: 09fd 8d3e 5743 7b3e a78e 913d 2757 b03d
00000090: d825 823e ac1a 9a3e 4177 31be 8a89 6cbe
000000a0: 1215 44be 3108 f03d d2c0 953e 3099 853c
000000b0: 3c92 babe e230 4abe e83a ec3d b0d7 653e
000000c0: 6596 87bc f6b5 90be 4d01 d63e e7c7 a73e
000000d0: 1849 2fbe 6666 85be 664c 773e 62f5 b1bd
000000e0: a0a5 a23e 70c7 ce3d e04a 783d 623a 06be
000000f0: 201a b83d c36a 443e 47d2 b4bd 3d1c 0dbe
00000100: 439e 863e b530 1a3e 2459 90be 98ce 7cbe
00000110: e7a5 edbd 8b92 94bc 75df 243e c4cb 26be
00000120: b6f0 d63d aabc 0b3e 3906 1f3e fc2c 7ebe
00000130: 4bce 52be f34d 43be fe3d 9f3d 3e81 92bc
00000140: a30a 333e 36f2 5f3d 921d 0c3d 692a b73d
00000150: 969e 11be e91c bf3d dc31 8c3e 4ac0 0b3e
00000160: e3b2 e7bc 5591 80bd 746c 1b3e 6dd4 69be
00000170: 3b6a f03c 1b14 673e 6db2 003d fe75 3ebc
00000180: 3ba8 68be 0f03 6abe 6c93 ff3d 7f90 21be
00000190: 7ea4 9dbc 1fb0 29be b977 e03d ca51 843d
000001a0: df08 3bbe 9a92 0d3e 9320 13bc d5dc dabd
000001b0: 6e42 ba3e 05b6 debd 013c 64be 256a 103d
000001c0: 64f2 0abe 98eb cfbd eee1 5fbe c07d 7ebd
000001d0: c063 4b3e 4245 68be a21b 2dbe d815 60bd
000001e0: 309a 4abe d0ad 3f3d e87c 4bbd 74a8 413e
000001f0: 0a6c 7ebe 2020 093c 70c6 e13d 18ee 043d
00000200: 2857 2ebd aa6d 873e c824 eebd 9176 9d3e
00000210: 5ba9 d63d 5221 2d3e 3025 3f3e 002b 0e3d
00000220: ffbf 563d 865b ea3c 1e30 60be 5cb1 c03d
00000230: f2c8 983d 7fb6 2a3e 37d7 27bd 8532 5cbe
00000240: b372 663b d242 353d cd69 babd 136d 9a3e
00000250: d406 a63c 7e3b 8a3d 080d 7c3e 3ca5 0b3e
00000260: bce5 9fbd 192d 4e3e 1927 1f3e abf5 ed3d
00000270: 75ec df3d 79de 0e3e 3d34 38be 7dfd 9abc
00000280: e341 35be 5945 0b3e 24a5 e23d 5c03 debe
00000290: fac4 acbd 1550 86bd 96c6 59be 4735 e03d
000002a0: 656d a1be 3cdc a7be 2020 7ebe 006e 59ba
000002b0: 811a c7be 20a3 93be 6a90 7e3e 6497 d73d
000002c0: 09a1 5a3d e662 fe3d a6c9 0c3b 0763 a3bb
000002d0: bf40 72be f20d a13c 409d 7cbe 5154 41bd
000002e0: 9755 3dbe 937b 3abe 99d6 4abe 18da f7bd
000002f0: 703f 18be 7fc2 3abe 9c81 babd dce8 69be
00000300: 746c 933e 2f1a 4a3e 2b22 c2be f83a 9dbe
00000310: 1b29 f8bc b201 433e 92b1 883e a307 0abe
00000320: 88b5 6d3d e1d2 86be 9e80 36bb d0be 1ebd
00000330: 252e b2be e0a8 efbd 5882 873d 2134 133e
00000340: d534 60be f2a2 e0bd f633 183e e954 ad3d
00000350: 5ee3 cc3d d688 5cbe d72b af3e f1b6 31be
00000360: 95ba 3bbc 03a6 5a3e 8711 1c3d 8bae dcbd
00000370: d944 10bd 3724 883e de26 d6ba c44e f73d
00000380: 0c1d 02bc d8d6 88be 34f9 553d d0f3 803e
00000390: 2dac fbbd 73f8 21be a5b2 053e e089 40bd
000003a0: d6bf ed3d 0e84 a2bc f503 093d 3d5f 143d
000003b0: d743 e93c 7ce8 b2bd 0567 c13d 4f27 96bd
000003c0: fe37 493e 0b22 c93d 003e 9abc f5df 323d
000003d0: a8ce 97bd e9b0 483e 922b 6b3e 99b7 fd3c
000003e0: 5fbe f7bd 472e 823e 1101 723e 6380 203e
000003f0: 8409 cfbd 1a7b 063e b7c7 0e3c ad64 d2bd
0.0065422268 -0.25799417 -0.08247458 -0.06926605 -0.22456694 -0.070712894 -0.002770973 -0.15201814
0.024312891 0.120850526 0.018339705 -0.24538982 -0.00078997016 -0.12832573 0.07126027 -0.20059109
-0.24948436 -0.09530014 0.1529896 -0.10210818 -0.054522652 -0.1664856 -0.17801476 -0.016731557
-0.0009925807 0.026163751 0.12258477 0.08216972 0.24448341 -0.061031964 -0.104419604 0.20370501
0.27732113 0.24537407 0.07107287 0.08610373 0.25419497 0.30098474 -0.17330648 -0.23099342
-0.19148663 0.117203124 0.29248673 0.016308397 -0.36439693 -0.1974521 0.11534673 0.2244556
-0.016551206 -0.28263825 0.41797867 0.327697 -0.17117727 -0.26054686 0.24150237 -0.08689381
0.31766987 0.100966334 0.06061828 -0.13108209 0.08989358 0.19181351 -0.0882917 -0.13780303
0.2629262 0.15057643 -0.2819301 -0.24688184 -0.11603909 -0.018136283 0.16100867 -0.16288668
0.10495131 0.13646188 0.15529718 -0.24821848 -0.20586507 -0.19072704 0.07775496 -0.017883893
0.17484526 0.05467435 0.034207888 0.08943636 -0.14220652 0.09331686 0.2738179 0.13647571
-0.028283542 -0.0627772 0.1517809 -0.2283494 0.02934753 0.22566263 0.03142016 -0.011624811
-0.22720425 -0.2285273 0.1247929 -0.15777777 -0.019243475 -0.16571091 0.10960335 0.064609125
-0.18265103 0.13825455 -0.008979934 -0.106866516 0.36378807 -0.10874561 -0.22288515 0.035257477
-0.13569027 -0.10152358 -0.21863529 -0.062131643 0.1986227 -0.2268267 -0.16905072 -0.05470833
-0.1978538 0.04679662 -0.049679667 0.18911916 -0.24845901 0.008369476 0.11024177 0.032453626
-0.042563587 0.26450855 -0.11628109 0.3075452 0.10481521 0.16907242 0.1866653 0.034708977
0.052429195 0.028608095 -0.21893355 0.094088286 0.07460202 0.16671179 -0.04097673 -0.21503647
0.003516358 0.044253178 -0.09102211 0.30161342 0.020266928 0.067496285 0.24614346 0.1363725
-0.0780749 0.20134391 0.15542258 0.11619123 0.109337725 0.13952054 -0.17988677 -0.0189197
-0.17700915 0.13600673 0.11066654 -0.43361938 -0.08436008 -0.06558243 -0.21267161 0.10947662
-0.31528774 -0.32785213 -0.24816942 -0.00082942843 -0.38887408 -0.28835392 0.24859777 0.10526922
0.05337623 0.12421207 0.0021482497 -0.00498617 -0.23657511 0.01965997 -0.24669361 -0.04719955
-0.18489681 -0.18211202 -0.19808425 -0.12102145 -0.1486795 -0.18238257 -0.09106752 -0.22842735
0.2879368 0.19736551 -0.37916693 -0.30709052 -0.030293038 0.19043615 0.26697975 -0.13479476
0.05803445 -0.26332763 -0.0027847658 -0.03875619 -0.3480083 -0.11702132 0.06616658 0.14375354
-0.21895154 -0.10968579 0.14863572 0.08463461 0.10004304 -0.21536574 0.34213135 -0.17354943
-0.011458059 0.21352391 0.038102653 -0.10775479 -0.03522191 0.2659013 -0.0016338488 0.1207557
-0.007941496 -0.26726413 0.05223961 0.25186014 -0.12288699 -0.15817432 0.13056429 -0.047006488
0.116088554 -0.01983836 0.03345104 0.03622364 0.028474731 -0.08735749 0.094434775 -0.07331716
0.19650266 0.09820946 -0.018828392 0.043670613 -0.074124634 0.19598736 0.2296584 0.030971335
-0.12096857 0.25425932 0.2363322 0.15673976 -0.10109237 0.13132897 0.008714608 -0.10273109

encoder.convs.2.lin_l.bias f4 [16]
00000000: 1c75 84be 9066 53bd c004 173e 36e9 4d3e
00000010: a878 843d bdaa fd3d c3b7 1c3e d0f6 45bd
00000020: 4997 3f3e 0f0c c03c 5eb7 a5bd 103b 49be
00000030: 4924 64be 5885 01be 73aa b83c 56ed 913e
-0.25870597 -0.051611483 0.14747906 0.20108494 0.06468326 0.12386081 0.15304475 -0.048331082
0.18710054 0.02344325 -0.08091615 -0.19651437 -0.22279467 -0.12648523 0.022542214 0.28501385

encoder.convs.2.lin_r.weight f4 [16, 16]
00000000: fcae c73c 9154 b93c 27ef d6bd 1f0f dabd
00000010: d452 b7bd 065e 9a3d 70ce 023d 73fa d2bd
00000020: 9fea 1a3d c6a3 60bd 24f9 e6bc 4e85 353e
00000030: 7459 d5bd 5f6f 633e 0a06 0cbe d42c 6d3e
00000040: e549 bc3d efff 383d 51e2 43bc 02b5 26bd
00000050: a954 73be 1f59 a2be 8f98 4e3e 46d2 9d3e
00000060: c16f 053e 0c76 25bd 89a8 993d 8066 19bc
00000070: 82d8 ce3e 3036 08be fcc3 b13d 7082 7abd
00000080: dede cebd 4cfa 83be 148f 4d3e 9ebf 92bd
00000090: 2605 823c 2320 d13d 265a 703e c098 2b3e
000000a0: a0c1 423e 2576 b63d 3c9b 283e 8938 6f3e
000000b0: a44d b23e 5da7 0d3e 9959 833d 5385 ef3c
000000c0: 2024 9c3e 788e 673e 4bdc a4be 4ecb 49be
000000d0: c629 82bd e6be 013e 9717 ab3d 509d 24be
000000e0: 62b1 94be 2634 9bbe 34aa 313e e043 90bc
000000f0: dfa2 f13e 928b 573a 684d 58bd e3e5 07be
00000100: 3764 21be 3c36 80be 9527 eebd 7dd0 51be
00000110: ec38 04bd 07f8 37bc e797 9b3e f798 e5b9
00000120: 85a2 6c3e 418a 283e d2ce 26be 6286 e4bd
00000130: 24d8 0b3d e2e6 22be 19bc 203d aa0b 893d
00000140: 8152 16be 1b6b 16bd 6ff2 37be ca80 a73e
00000150: e511 3d3e b149 9a3c a57e 423e 147b 37be
00000160: 65b6 853e 23eb c6bc 2d7e 3f3d f19a 273e
00000170: 4c37 e2bd 668a e33d a3f0 fcbc d727 863b
00000180: a374 663e a7b9 02bd a720 8cbd d62e 903d
00000190: 0e39 2fbe 1069 12be 3c0f aa3d a2e5 883e
000001a0: 5fee f33d 7c41 0ebe 600f 583e 688f bcbd
000001b0: b613 e03e b186 b53d ead4 363e e0f6 5fbd
000001c0: 5c09 d0bd 50fd 4bbd 00e8 143b d49e f1bd
000001d0: acf3 2f3e 6240 09be 10fe 213d c68c 44be
000001e0: 804c febc 10a4 5cbd acd4 ccbd 90d3 053e
000001f0: c895 64be e0ce d63c c095 bfbc 5423 05be
00000200: f5c6 7f3e 0eea 853e 98c6 7c3d fce5 d4ba
00000210: 20f6 3c3e 86e3 a53c e8a3 48be 19fa 513e
00000220: 6606 02be 9208 413d 521a be3c 766f 493e
00000230: cd18 883d 5f59 4abe e8b2 dfbb 62af 5abe
00000240: a2a9 933e ce7a c43e 3d3b 14be 9737 4f3d
00000250: af4a 39bc 52af b73d 570c 6e3e ed32 63be
00000260: 4588 70bd 9b35 00bd 7832 2dbe 9976 b43d
00000270: 38ca 0bbc 0123 6cbe 30f5 b93d ddbd cabc
00000280: 272c 483e 2e66 89be 0f41 473e 43d9 163c
00000290: a1a5 c63d bad4 0bbe d342 253d 8640 0b3e
000002a0: 4679 5d3e 1f11 1a3e 2a7f 2e3e 908e 57bd
000002b0: 9345 36be b61a 953d 2481 693e 8aba 623e
000002c0: a9e9 22be fa1a 303e 8b86 9d3d 11a7 6cbd
000002d0: 213a e53d c0d2 2abc c8c5 bfbb d77b 29be
000002e0: cda2 7dbd 9ba2 603e 7be7 083e 40e4 4ebe
000002f0: c0fd 67bc 05e6 f53d dc1a dbbd c842 00bd
00000300: 4558 26bd 9df3 34bc 6826 9f3e 80de e0bd
00000310: 555d a7be d403 8bbd e9f8 b9bd 07fe 3c3e
00000320: 584f 613e 0e64 6cbb b137 93bc fa6d c23d
00000330: e3eb 243d 70f4 9f3e 6c36 c33c 3a04 95bd
00000340: 9374 f1bd 24c6 a93e eb9e 93be 6e9a 573e
00000350: 4f38 1c3d f28a 653d 02f8 d23d 1739 993e
00000360: 0560 30be 943b 4fbe 27ec 5f3e 0bdb 0abe
00000370: a7c1 5bbd f2a3 3b3e 403b d4bd b834 113e
00000380: 3fb5 c73c bb45 af3e 2f67 203e 9d2b b6bc
00000390: 53dc 223d bdf1 893e ba57 893d f100 a3bd
000003a0: e44d 083e 815c bbbd 12f0 cd3d 187c 98bd
000003b0: 6be4 96be 8b49 aebd e0cc 893c 7559 cb3d
000003c0: 5eb9 863e 8c0d 783e beec c1bd e8a1 803e
000003d0: 8dcc 733e 6a57 533e bb9c 543d cef5 2dbe
000003e0: 7946 17be e09f 493d 5515 18be 519d 953d
000003f0: f577 c3be 114b 63be c835 f1bd 55f5 063e
0.024375431 0.022623332 -0.104948334 -0.10647415 -0.08951345 0.07537465 0.031935155 -0.10301676
0.03782141 -0.054843687 -0.028194971 0.17726633 -0.104174525 0.22210453 -0.13674179 0.23161632
0.09193782 0.045165952 -0.0119558135 -0.040699966 -0.23762764 -0.3170862 0.20175384 0.30824488
0.13030912 -0.04039578 0.07502849 -0.009362817 0.40399557 -0.13301921 0.08679959 -0.06115955
-0.10101102 -0.257769 0.20074111 -0.07165454 0.015871596 0.10211208 0.23471889 0.16757488
0.19019175 0.08909253 0.16465467 0.2336141 0.3482486 0.13833375 0.06413574 0.029238379
0.3049631 0.22612941 -0.3219932 -0.19706461 -0.06355624 0.12670478 0.08354109 -0.16075635
-0.29041582 -0.30313224 0.17350084 -0.01761049 0.47194573 0.0008222397 -0.052808195 -0.13271289
-0.15760885 -0.25041378 -0.116286434 -0.20489688 -0.032280847 -0.011228568 0.3038933 -0.0004379225
0.23108871 0.1645899 -0.16289833 -0.11158444 0.034141675 -0.15908387 0.039241884 0.06691678
-0.1467991 -0.036723237 -0.17963575 0.32715446 0.18463857 0.018833967 0.18993624 -0.17918044
0.26115718 -0.024282044 0.04675119 0.16367699 -0.11045703 0.11110382 -0.030876463 0.0040941047
0.22505431 -0.031915333 -0.068421654 0.07040183 -0.17111608 -0.1429789 0.08303687 0.26737696
0.119107 -0.13892168 0.21099615 -0.0920704 0.43765038 0.08863581 0.17854658 -0.054678798
-0.10158035 -0.049802125 0.002272129 -0.11797872 0.17182797 -0.13403466 0.039548934 -0.19194326
-0.031042337 -0.0538674 -0.100015014 0.13068986 -0.22322762 0.026221693 -0.023386836 -0.13001758
0.2497824 0.26155132 0.06171283 -0.0016242857 0.18453264 0.020250093 -0.19593775 0.20505561
-0.12697753 0.047127314 0.02320591 0.19671425 0.066453554 -0.19760655 -0.006826747 -0.21355966
0.28840357 0.38374943 -0.14475723 0.050590124 -0.01130931 0.089689866 0.23246895 -0.22187395
-0.058723707 -0.031301122 -0.16913784 0.08811683 -0.008532099 -0.23060228 0.09079969 -0.024748737
0.19548093 -0.2683577 0.19458412 0.009207073 0.0969956 -0.13655367 0.04034693 0.13598832
0.21628293 0.15045594 0.17040697 -0.052626193 -0.17799978 0.07280485 0.2280317 0.22141472
-0.15909447 0.1719779 0.07691678 -0.057776514 0.11192728 -0.010426223 -0.005852435 -0.16551147
-0.061922837 0.21937029 0.13369553 -0.20204258 -0.01415962 0.12006763 -0.106984824 -0.031313688
-0.040611524 -0.01104441 0.3108399 -0.109799385 -0.32688394 -0.067878395 -0.09080679 0.18456279
0.22002923 -0.003607038 -0.017970892 0.094936326 0.04026402 0.3124118 0.023829661 -0.07276197
-0.11789813 0.33158982 -0.28832182 0.21055004 0.038139638 0.05604071 0.1030121 0.2992637
-0.17224129 -0.20237571 0.21867429 -0.13560121 -0.05365148 0.18324259 -0.103628635 0.14180267
0.024378417 0.34232888 0.15664361 -0.022237593 0.0397609 0.26942244 0.06706186 -0.07959164
0.13310963 -0.09148503 0.100555554 -0.07445544 -0.29471144 -0.08510121 0.016821325 0.09929172
0.263133 0.24223918 -0.09468983 0.25123525 0.23808499 0.20638815 0.051907282 -0.16988298
-0.14772977 0.049224734 -0.14851888 0.07305396 -0.38177457 -0.22196604 -0.11777836 0.13179524

encoder.convs.3.lin_l.weight f4 [4, 16]
00000000: a831 473e c22a 94be fb8e 53be a7d0 543e
00000010: 24b6 07be 2874 66be d2f9 d2bc 7416 55be
00000020: ba00 0a3e 53a3 593e 9afe bd3e 4ca5 a7be
00000030: 4020 f43d c8ce 223e 4989 9d3e 8212 b13e
00000040: 7c34 81bd 0ccf f9bd 2d06 3abd 7d1e ac3e
00000050: 9894 14be 5b70 5a3e c9e3 7f3d 22b5 703e
00000060: 8c7c 8d3e c061 953e e117 3cbc de00 89be
00000070: e4f2 3bbe 9fa6 793e 8134 d53d d801 433e
00000080: 0a16 c43d 551b c33d fe46 913d 2fea 9bbd
00000090: db09 fe3d f631 60be d264 81be cce1 ad3d
000000a0: 2eaa 943e 96b1 5abc 5306 c33e 200d 8f3e
000000b0: dd5d 79be d845 863d d858 0f3e 0823 adbd
000000c0: 0fcd 6e3e 456d 49be 55d7 2dbe 0836 1b3d
000000d0: a15b 8fbe 9cf9 7c3e 32bf 76be f85a e6bd
000000e0: 361d 223d ab0a 9f3e a69a 933e c1e8 b2bc
000000f0: c1b2 02be 1752 7c3e dcb7 c63d b16d 943e
0.19452536 -0.28938872 -0.20660011 0.2078272 -0.13253075 -0.22505248 -0.02575389 -0.20809346
0.1347684 0.2125371 0.37108308 -0.327433 0.11920214 0.15899193 0.30768803 0.34584433
-0.06308839 -0.12197694 -0.045416046 0.3361701 -0.14509809 0.21331923 0.062473092 0.23506597
0.27634084 0.2917614 -0.011480303 -0.26758474 -0.18354374 0.24379967 0.10410405 0.19043672
0.09574516 0.095266975 0.07093619 -0.07613026 0.124042235 -0.21894059 -0.25272232 0.08490333
0.29036087 -0.013348004 0.38090762 0.279397 -0.24352212 0.065562904 0.13998735 -0.08453947
0.23320411 -0.1967059 -0.16976674 0.037893325 -0.27999595 0.24704593 -0.24096373 -0.1124782
0.03957864 0.31062827 0.28828925 -0.021839501 -0.12763502 0.2464069 0.09703037 0.28989938

encoder.convs.3.lin_l.bias f4 [4]
00000000: f5cd 3f3d c1da 843e c8d5 c83d 8243 ce3d
0.046827275 0.25948146 0.098064005 0.1007147

encoder.convs.3.lin_r.weight f4 [4, 16]
00000000: 773e 80be 1594 0c3c 1854 e1bd ca61 10bd
00000010: 66e8 933d b496 513e 36f3 5ebe c604 56be
00000020: b151 7b3d 2ce9 b63d 4216 cebd 18d0 413d
00000030: 5eb1 e13e f24f 78bd 16b1 d5bd b364 2a3e
00000040: 567a 5b3e 7f8d fabd 928e 3a3e a539 5d3d
00000050: 6822 2339 0ddf fe3c 6954 a0be 8c9e f53d
00000060: 4616 45bd f02f 11be dad6 d7bd dab7 30be
00000070: d62e be3d 4fbf 10be a64a 62bc 0374 283e
00000080: 9699 c23c 25b5 04be 8041 383b 2755 58be
00000090: d640 893e 252c b03d 4bf7 923d 5c56 64be
000000a0: 5866 0b3e 0d8e e63c d904 a0be cee9 543e
000000b0: 4b9f bb3e 2424 83bc 4a74 183e 13a8 423e
000000c0: 4e8a 583e 8b42 94be 4f2f b73e 8107 683a
000000d0: 8b90 a13d 786b 09be 30fe 29be bc87 783e
000000e0: 2cff 4d3e 4fd3 2b3e 4413 9cbd 2a4e 38be
000000f0: e03c 883e 4a98 50be 88fd 2fbe 10ad 153e
-0.25047657 0.008580227 -0.11002368 -0.03524951 0.07222061 0.20467645 -0.21772465 -0.20900258
0.061357204 0.08931193 -0.10062839 0.047317594 0.44080633 -0.060623117 -0.10434167 0.16639976
0.21433386 -0.122340195 0.18218449 0.054010052 0.00015557709 0.031112218 -0.313144 0.11993131
-0.048116945 -0.14178443 -0.105390266 -0.17257634 0.09286277 -0.14135478 -0.013811743 0.16450505
0.023754876 -0.12959726 0.0028115213 -0.21126233 0.26807278 0.0860217 0.07176074 -0.22298568
0.1361326 0.028143907 -0.31253698 0.20792314 0.36644968 -0.016008444 0.14888111 0.19009428
0.21146509 -0.28957018 0.3577828 0.0008851216 0.078888975 -0.13419902 -0.16600871 0.24270529
0.20116872 0.16779827 -0.07620862 -0.17998567 0.26608944 -0.20370594 -0.17186558 0.146168
